p1_navigation/model.pth (torch_old, 7046 bytes, 6 tensors)

fc1.weight f4 [32, 37]
0	0xbd89c688	-0.0672732
1	0xbdb3cdf3	-0.08779516
2	0xbe3bb450	-0.18330503
3	0xbf2a5ff1	-0.66552645
4	0xbea03a18	-0.31294322
5	0x3cdcea13	0.026967084
6	0xbea71a46	-0.32637233
7	0xbe62061e	-0.22072646
8	0xbc95ae84	-0.018271692
9	0xbece53b5	-0.40298238
10	0xbeb08ced	-0.34482518
11	0xbef04a06	-0.46931475
12	0x3d32ec85	0.043682594
13	0xbeceee1f	-0.40416047
14	0xbe535f07	-0.20641719
15	0xbdb8c067	-0.09021073
16	0xbdab7e13	-0.08373656
17	0xbd6be1cf	-0.057588395
18	0xbecd28b8	-0.40070128
19	0xbeaa5dc0	-0.3327465
20	0xbeb71587	-0.35758612
21	0x3bce63e9	0.0062985313
22	0xbf151242	-0.58230984
23	0x3e248032	0.16064528
24	0xbea5d10c	-0.32386053
25	0xbe5ac4a5	-0.21364076
26	0x3de9fab4	0.11424771
27	0xbe9abb10	-0.30220842
28	0xbec30dd6	-0.38096493
29	0x3c10e169	0.0088428045
30	0xbdff23a1	-0.124579675
31	0x3bdd1a6b	0.006747534
32	0xbe178582	-0.14797023
33	0xbe9744be	-0.29544634
34	0xbe1da33f	-0.15394305
35	0x3c017a78	0.007902734
36	0xbe01efbf	-0.12689112
37	0x3db4a175	0.08819858
38	0x3dcf4129	0.1011985
39	0x3dfaac00	0.12239838
40	0x3c1e235a	0.009651983
41	0xbe755c9b	-0.23961107
42	0x3c18b4a6	0.009320414
43	0xbe274374	-0.16334325
44	0xbe04ee28	-0.12981474
45	0xbe70f3fd	-0.23530574
46	0xbe22bffb	-0.15893547
47	0x3cf7b45e	0.030237373
48	0x3c5099f2	0.012732016
49	0x3c2e9156	0.010654768
50	0xbac8a944	-0.0015309234
51	0xbe16f3bb	-0.14741413
52	0x3d0fd565	0.03511562
53	0xbd5cd192	-0.0539108
54	0xbd84b0a4	-0.06479004
55	0x3d9b9829	0.075973816
56	0x3e76c28b	0.2409765
57	0xbe28daa4	-0.16489655
58	0xbe265a44	-0.16245371
59	0xbc9cdc82	-0.019148115
60	0x3dcda8f8	0.10041994
61	0x3e074de1	0.13213302
62	0xbe4ca875	-0.19986136
63	0x3c2cf7fa	0.010557169
64	0x3b183115	0.0023222615
65	0x3d789dac	0.060697243
66	0x3ef9dfaa	0.48803455
67	0xbd813a85	-0.0630999
68	0x3e79cb3c	0.24393934
69	0x3d80415d	0.06262467
70	0xbbd05789	-0.0063580913
71	0x3e8cc08c	0.27490652
72	0xbd888917	-0.06666773
73	0x3d9b819a	0.07593079
74	0x3e7ca866	0.24673614
75	0x3df96a0c	0.1217843
76	0x3d949fb6	0.07257025
77	0xbdcc3e8a	-0.09972866
78	0xbe50a8ac	-0.20376843
79	0xbebebd91	-0.37254003
80	0x3cd338e3	0.025783962
81	0x3ec2bf1a	0.38036424
82	0x3e9f2e64	0.3109008
83	0x3ed4432b	0.41457495
84	0x3da68dc6	0.0813251
85	0x3d11ee6f	0.03562778
86	0xbd020465	-0.031742472
87	0xbc6d68ce	-0.014490319
88	0xbd03ea71	-0.032206003
89	0xbe1a0dd5	-0.15044339
90	0x3da8dfed	0.082458355
91	0x3e7ef5e9	0.24898495
92	0x3e31ea5b	0.17374556
93	0x3e7cc8d4	0.24685985
94	0x3d910f33	0.07082977
95	0xbce23c86	-0.02761675
96	0x3ccdea33	0.025136089
97	0xbe09aa1f	-0.13443802
98	0xbd0fe855	-0.03513368
99	0xbe259c04	-0.16172796
100	0x3dea3149	0.11435182
101	0x3e51ff7b	0.20507614
102	0x3de8effe	0.113739
103	0x3e6a76be	0.22896859
104	0xbdd47ac6	-0.1037498
105	0xbdf7adfd	-0.120937325
106	0xbca4d551	-0.020121248
107	0x3bb8507c	0.005624829
108	0x3e046ae8	0.12931406
109	0x3d7187c5	0.05896737
110	0x3bc51d48	0.0060154535
111	0x3dde451c	0.10853025
112	0x3d9acbb1	0.07558382
113	0x3d0845d2	0.03326971
114	0x3bfefbe6	0.0077814935
115	0xbdc875ab	-0.097880684
116	0xbd7afdf8	-0.06127736
117	0x3d945e3c	0.07244536
118	0x3dd58080	0.104249
119	0x3d964eb4	0.0733923
120	0x3e0566e4	0.13027531
121	0x3d21c7d7	0.039497223
122	0xbd0d1820	-0.034446836
123	0xbd5a5919	-0.053307626
124	0xbd958442	-0.07300617
125	0xbde06b3e	-0.10957955
126	0xbc49b8a5	-0.012312089
127	0xbd468134	-0.04846306
128	0xbd98a4a1	-0.074532755
129	0xbe13637c	-0.14393419
130	0xbe7aa6b8	-0.2447766
131	0x3d90a890	0.07063401
132	0x3c019acd	0.007910443
133	0x3d4b58fb	0.049645405
134	0xbcd48517	-0.025942368
135	0x3c91404b	0.017730853
136	0x3db51b28	0.0884307
137	0xbc118cb1	-0.008883641
138	0x3ca8dd47	0.020613326
139	0x3c3c3a61	0.011488528
140	0xbd91d9d3	-0.07121625
141	0x3eca03bb	0.3945597
142	0xbe90f7ac	-0.2831396
143	0xbec27a57	-0.37983963
144	0xbe8c0657	-0.27348587
145	0xbfae04e4	-1.3595243
146	0x3afa438a	0.0019093615
147	0x3ba691b5	0.0050832876
148	0xbdd0396a	-0.10167201
149	0xbd92e6f4	-0.07172957
150	0xbd9e3a76	-0.07725994
151	0xbd458eda	-0.048231937
152	0x3ce78b66	0.028264713
153	0x3d8dfa10	0.06932461
154	0x3e11dd71	0.1424463
155	0x3d330ede	0.04371535
156	0x3c8b8243	0.017029887
157	0xbdc132f1	-0.094335444
158	0xbc02d49e	-0.007985262
159	0x3c321339	0.010868841
160	0xbbca7360	-0.0061783046
161	0xbc7cc00d	-0.015426648
162	0xbcc75148	-0.02433075
163	0xbd001773	-0.031272363
164	0x3c6b58b8	0.014364414
165	0xbc4a68ec	-0.012354117
166	0xbd156623	-0.03647436
167	0xbce25b5b	-0.027631452
168	0x3cdd9131	0.027046772
169	0x3d287ffd	0.041137684
170	0x3cc1d868	0.02366276
171	0x3d532f61	0.051558856
172	0xbbd213fc	-0.0064110737
173	0x3ed495e7	0.41520616
174	0xbf1c7a9f	-0.61124605
175	0xbeacacd5	-0.3372561
176	0xbe931c8b	-0.28732714
177	0xbff28ca6	-1.8949172
178	0x3b55ba71	0.0032612348
179	0xbbe38e76	-0.006944473
180	0x3d7aadec	0.06120102
181	0x3e18838e	0.14893934
182	0x3df84149	0.12121827
183	0x3b5cfa98	0.0033718701
184	0xbb05143b	-0.0020306248
185	0x3c09a756	0.008401712
186	0x3d15e4a0	0.036594987
187	0x3cfc5471	0.030801984
188	0x3b9b586d	0.004740766
189	0xbda45559	-0.08024091
190	0x3e7068b2	0.23477438
191	0x3de1e0d7	0.11029213
192	0x3dc45d78	0.0958814
193	0xbdb0e508	-0.08637434
194	0xbe6e6157	-0.2327932
195	0xbdb23e0a	-0.08703239
196	0xbd4b51e1	-0.049638633
197	0x3c8308da	0.015995432
198	0x3dc1c680	0.09461689
199	0x3d58ae2c	0.05290048
200	0xbb3f1c61	-0.0029161202
201	0x3ddd684d	0.108109094
202	0x3d403e95	0.046934683
203	0xbc8d0fc6	-0.017219435
204	0x3d8f81d4	0.070071846
205	0xbccb12c6	-0.024789225
206	0x3e711eea	0.23546949
207	0x3dc19356	0.0945193
208	0x3dcde639	0.10053677
209	0xbca60952	-0.020268116
210	0xbc461595	-0.0120901065
211	0x3dac1313	0.084020756
212	0x3df9176f	0.12162673
213	0x3d13fc8b	0.036129516
214	0x3e0ad876	0.13559136
215	0x3ef5a182	0.47974783
216	0xbeea4ff0	-0.45764112
217	0xbed75789	-0.42058972
218	0xbec40d18	-0.3829124
219	0xc000501a	-2.004889
220	0x3c9a8213	0.018860852
221	0xba50c795	-0.00079643104
222	0xbe158b36	-0.14603886
223	0xbcecc2be	-0.028901454
224	0x3c844345	0.016145358
225	0x3de19d4c	0.1101633
226	0x3e32eb07	0.17472468
227	0x3c834512	0.016024146
228	0xbdba906e	-0.09109579
229	0xbdc24f8c	-0.094878286
230	0x3cec318b	0.028832218
231	0x3e6999e3	0.2281261
232	0x3dded6ac	0.10880789
233	0x3dbaf122	0.09128024
234	0xbd9bf508	-0.076150954
235	0xbda765a1	-0.08173681
236	0xbe348c1d	-0.17631574
237	0x3cb50929	0.022099094
238	0x3cdaae0d	0.026694322
239	0xbdd743fc	-0.10511014
240	0xbd58aa00	-0.0528965
241	0x3dc6b1ed	0.097019054
242	0x3c978d63	0.018500036
243	0xbe1d3f67	-0.15356217
244	0xbd7b7d55	-0.061398823
245	0xbe098199	-0.13428344
246	0xbdb36085	-0.08758644
247	0xbd793b82	-0.060847767
248	0xbd3c3053	-0.045944523
249	0xbd40047c	-0.046879277
250	0xbe29c8ba	-0.16580477
251	0xbca2f3af	-0.019891588
252	0x3d27543c	0.040851817
253	0xbdde4f35	-0.10854951
254	0x3d56339d	0.052295316
255	0xbdb3636e	-0.08759199

fc1.bias f4 [32]
0	0xbe5dcbb9	-0.21659745
1	0xbe18ffea	-0.14941373
2	0x3cf3f1c1	0.029778363
3	0x3e1c4e21	0.15264179
4	0x3e2c364c	0.16817588
5	0xbdae8476	-0.08521359
6	0xbccd6cca	-0.025076289
7	0x3d955455	0.07291476
8	0x3e7522cd	0.23939057
9	0x3eaf4d46	0.34238642
10	0xbbf991bc	-0.00761625
11	0x3d8bc234	0.06824151
12	0xbb6e9243	-0.0036403097
13	0x3da60ab6	0.08107512
14	0x3de49284	0.11160758
15	0xbd628a43	-0.055307638
16	0x3e7d2c29	0.24723877
17	0x3ec9fa98	0.39449
18	0x3d88b6ad	0.06675468
19	0xbe85c217	-0.2612464
20	0xbdcce304	-0.10004237
21	0xbe46982a	-0.19393983
22	0x3dbeae06	0.09310536
23	0x3e747d77	0.23875986
24	0xbe320744	-0.17385584
25	0xbd481cfd	-0.04885577
26	0xbe276acb	-0.16349332
27	0x3b936ce0	0.004499063
28	0x3df2ef3d	0.11862037
29	0xbdd72dc4	-0.10506776
30	0xbdba9c36	-0.09111826
31	0xbdc5ca68	-0.096577466

fc2.weight f4 [8, 32]
0	0x3e1dbbc4	0.15403658
1	0xbce8f929	-0.028439121
2	0xbe9114b1	-0.283361
3	0x3ea82035	0.32837072
4	0x3cbfbc96	0.023405354
5	0x3d562c56	0.052288376
6	0xbe0bb28f	-0.13642333
7	0xbe401962	-0.18759683
8	0xbd02bf8f	-0.031920966
9	0x3df32517	0.11872309
10	0xbdd91f2e	-0.1060165
11	0x3d92770e	0.07151614
12	0x3d91ac0c	0.071128935
13	0x3e8df3f4	0.27725184
14	0xbddd82c9	-0.10815961
15	0xbdb0471f	-0.08607315
16	0xbd7d50a5	-0.061844487
17	0xbd17e502	-0.037083633
18	0x3f1dc1e8	0.61624
19	0xbd0cc0e7	-0.034363654
20	0x3f2c0943	0.6720163
21	0x3d19c48b	0.037540954
22	0x3da1358e	0.07871543
23	0xbe7ecc70	-0.24882674
24	0xbe0ecf8b	-0.13946359
25	0xbb095b1e	-0.002095885
26	0x3e9429b4	0.28938067
27	0xbe826d10	-0.25473833
28	0xbcf6a33b	-0.030107131
29	0xbe7b27f9	-0.24526967
30	0xbf034b3a	-0.5128666
31	0xbe0d38a9	-0.13791145
32	0x3ea7b471	0.32754853
33	0xbe5cd11c	-0.21564144
34	0xbe124b54	-0.14286548
35	0x3e0555e1	0.13021041
36	0x3ee5005d	0.4472684
37	0xbe928b64	-0.28621972
38	0x3d7d8524	0.06189455
39	0xbdcbd393	-0.09952464
40	0x3df17193	0.11789241
41	0xbe7d672d	-0.2474639
42	0x3dd2b327	0.10288077
43	0x3e23c556	0.15993246
44	0xbefb7920	-0.4911585
45	0xbe7e2348	-0.24818146
46	0xbda46e7d	-0.080288865
47	0x3d397f81	0.045287613
48	0x3d574893	0.052559447
49	0x3cb66b7b	0.022268048
50	0xbe9e040b	-0.3086246
51	0x3e2090d2	0.15680245
52	0xbea90815	-0.3301398
53	0x3e8669cb	0.2625259
54	0xbe131d00	-0.14366531
55	0x3e1f76ae	0.15572616
56	0xbeab6a59	-0.33479574
57	0xbe67c68f	-0.22634338
58	0xbf1047f2	-0.5635978
59	0x3dc6c430	0.097053885
60	0x3e299615	0.16561158
61	0x3f84376e	1.0329416
62	0x3d68a264	0.056795493
63	0xbc46ec3f	-0.012141286
64	0xbed404c5	-0.4140989
65	0x3d8c7d1b	0.068597995
66	0x3d760346	0.060061716
67	0x3c5375b5	0.0129064815
68	0x3edeb2b0	0.43495703
69	0xbe56627f	-0.20936011
70	0x3dc53155	0.0962855
71	0x3ebcbed2	0.36864334
72	0x3c91c45d	0.017793829
73	0xbce8f785	-0.028438339
74	0x3df07a27	0.11742049
75	0x3d18d76f	0.03731483
76	0xbe18bfc1	-0.14916898
77	0xbefd5c30	-0.49484396
78	0x3eb03ed9	0.3442295
79	0x3d3c980d	0.046043444
80	0x3dfda36b	0.12384685
81	0xbbf6efb9	-0.0075359014
82	0x3e56e479	0.20985593
83	0xbe4d9503	-0.20076375
84	0x3e7d65f2	0.2474592
85	0xbd670608	-0.056402236
86	0x3deab0af	0.11459481
87	0x3e4b7faf	0.19872926
88	0x3e417fde	0.18896434
89	0x3f401aca	0.75040877
90	0xbcd151a8	-0.025551632
91	0xbe0ac9a0	-0.13553476
92	0xbe86372c	-0.26213968
93	0x3c867126	0.016411375
94	0x3d26a247	0.040682103
95	0xbe3df45a	-0.18550244
96	0xbc94cf22	-0.018165175
97	0xbe038bb0	-0.12846255
98	0x3d200d0f	0.039074954
99	0x3dc78819	0.097427554
100	0xbe327847	-0.17428695
101	0xbdfeeb62	-0.124472395
102	0x3ded5b29	0.11589653
103	0x3cd87598	0.02642326
104	0xbcc80464	-0.024416156
105	0x3c852838	0.01625453
106	0xbcdc2e20	-0.026877463
107	0xbdfd0d66	-0.12356071
108	0xbe38aaf4	-0.18033963
109	0x3dd1df5f	0.10247683
110	0xbccdb65e	-0.025111374
111	0xbda55470	-0.08072746
112	0xbd7aaeed	-0.06120198
113	0xbdc576d8	-0.09641808
114	0xbd8ab5eb	-0.06772979
115	0xbe1b63bd	-0.15174766
116	0x3e0776f3	0.1322897
117	0x3d768802	0.0601883
118	0xbdb69578	-0.08915228
119	0xbd9add42	-0.07561733
120	0x3da26c92	0.079308644
121	0xbd86109c	-0.06546137
122	0x3d3eef44	0.0466149
123	0x3d0b325c	0.033983573
124	0xbde3e6a1	-0.11127973
125	0x3cf19aa3	0.029492682
126	0x3c313550	0.010815933
127	0x3e0e623a	0.13904658
128	0xbedbcfe2	-0.4293204
129	0x3d48217d	0.048860062
130	0x3e2e5919	0.17026176
131	0x3eb45ce5	0.35227123
132	0x3edd77b7	0.43255398
133	0x3e63831c	0.22217983
134	0x3e004c1c	0.12529033
135	0x3edcb2db	0.43105206
136	0x3e9a2541	0.30106547
137	0x3ec0e23b	0.376726
138	0x3d65ab17	0.056071367
139	0x3e8b7645	0.2723867
140	0xbdedee36	-0.11617701
141	0x3ea1f226	0.31630057
142	0x3f0e85de	0.55673015
143	0x3e461ef3	0.19347744
144	0x3e39cb66	0.18143997
145	0x3eb5e241	0.3552418
146	0xbd00e598	-0.031468958
147	0x3d4bceb7	0.049757686
148	0x3ea2a00b	0.31762728
149	0x3dd19fbf	0.10235547
150	0x3e8f7fe8	0.28027272
151	0xbb7804f4	-0.003784475
152	0xbe048445	-0.12941082
153	0x3f399925	0.72499305
154	0x3dc3896e	0.09547697
155	0x3e472af4	0.19449979
156	0xbec51a0f	-0.38496444
157	0x3dfe0b29	0.124044724
158	0xbead85f5	-0.33891264
159	0xbe46217a	-0.19348708
160	0x3e33b158	0.1754812
161	0x3d67f3a6	0.056628846
162	0x3db7bf27	0.08972006
163	0x3e55f81e	0.2089543
164	0x3ef41986	0.47675723
165	0xbc93018b	-0.017945072
166	0x3d336119	0.04379377
167	0xbe23006f	-0.15918134
168	0x3e0d3c5d	0.13792558
169	0x3e660ce9	0.22465862
170	0x3d943c46	0.07238059
171	0x3c97902d	0.018501366
172	0xbe2c2706	-0.16811761
173	0x3e7e1429	0.24812378
174	0xbedecfee	-0.43518013
175	0x3e01d798	0.12679899
176	0x3e12a4c0	0.1432066
177	0x3df3328b	0.11874875
178	0x3e112fa5	0.14178331
179	0x3da217ac	0.07914671
180	0x3ea2bd0a	0.3178485
181	0xbc95b22f	-0.018273441
182	0x3e2bf921	0.16794254
183	0x3db8b458	0.09018773
184	0x3d1ee909	0.03879646
185	0xbd2a0c0f	-0.041515406
186	0xbe5a7947	-0.21335326
187	0x3e0be2ab	0.13660686
188	0xbe82789e	-0.2548265
189	0x3e992f57	0.2991893
190	0x3cc0da82	0.023541693
191	0xbe8c1f77	-0.27367756
192	0x3e17bc77	0.14817987
193	0xbdf8dc45	-0.12151388
194	0xbcf3a661	-0.029742422
195	0x3e47ff67	0.19531022
196	0x3e91f6ad	0.2850851
197	0x3ee77a83	0.45210657
198	0x3e64615f	0.22302769
199	0xbe48e538	-0.1961869
200	0x3e10a63f	0.14125918
201	0xbd980be8	-0.07424146
202	0xbdb36917	-0.08760279
203	0x3deb7ece	0.114987954
204	0x3deef08e	0.11666976
205	0x3e758e80	0.2398014
206	0xbe714221	-0.23560382
207	0x3db93f2a	0.09045251
208	0xbe5150bf	-0.20440958
209	0x3d729d04	0.059231773
210	0x3eba77ed	0.3641962
211	0xbeab5170	-0.3346057
212	0x3e935171	0.28773072
213	0xbe534645	-0.20632274
214	0xbdf19720	-0.11796403
215	0xbdbcecb4	-0.09224835
216	0xbe126f86	-0.14300355
217	0x3ed583d8	0.4170215
218	0xbe8a2c10	-0.26986742
219	0xbd91e60c	-0.07123956
220	0xbe2622d4	-0.16224223
221	0x3dbfdff1	0.09368885
222	0xbf00f4fb	-0.5037381
223	0xbdacf896	-0.084458515
224	0x3d82ee43	0.06393101
225	0x3cf140e5	0.02944989
226	0x3e0f4a6b	0.13993232
227	0xbf184bb7	-0.5949053
228	0xbf6811cb	-0.9065215
229	0xbeb51814	-0.35369933
230	0x3d008840	0.031379938
231	0xbe8568b6	-0.2605645
232	0x3d12a2c2	0.03579975
233	0x3b987b72	0.0046533877
234	0x3e05e9f7	0.13077532
235	0x3d5f1ac9	0.054468904
236	0x3ca289be	0.019841071
237	0xbf15a35c	-0.5845239
238	0xbe9f21fd	-0.31080619
239	0x3d2556af	0.04036587
240	0x3d8de661	0.06928707
241	0x3b888379	0.0041660634
242	0xbdaf1f73	-0.0855092
243	0x3cd07fff	0.025451658
244	0xbf130ecd	-0.5744446
245	0x3d597b05	0.053095836
246	0x3db5c635	0.088756956
247	0x3b6adb62	0.0035836329
248	0x3cb69b82	0.022290949
249	0xbf7de194	-0.9917233
250	0x3e852890	0.2600751
251	0xbba56ba6	-0.005048233
252	0x3f099a3b	0.5375096
253	0xbdda353f	-0.10654687
254	0x3e485edf	0.1956744
255	0x3cadc570	0.02121231

fc2.bias f4 [8]
0	0x3e5cdf15	0.21569474
1	0x3dd66f57	0.10470455
2	0x3daad47a	0.08341308
3	0xbe299d20	-0.16563845
4	0x3e102bc3	0.14079194
5	0x3cc96ee4	0.02458901
6	0x3e735150	0.23761487
7	0x3dcb03c8	0.099128306

fc3.weight f4 [4, 8]
0	0x3ee80629	0.453172
1	0x3edad884	0.42743313
2	0x3e8368a3	0.2566577
3	0xbe6061f6	-0.21912369
4	0x3e8b218e	0.27174038
5	0x3ea14c13	0.31503353
6	0x3cb992ea	0.022653062
7	0xbf22958a	-0.6350943
8	0x3f0d3424	0.55157685
9	0x3f1bed3f	0.60908884
10	0x3eb1f015	0.3475348
11	0x3e171a56	0.1475614
12	0x3ec6dce6	0.38840407
13	0x3d21500f	0.03938299
14	0x3db0ca5e	0.086323485
15	0xbea02c1e	-0.3128366
16	0x3e3d4f37	0.1848725
17	0x3db937b7	0.0904383
18	0x3ee8c70e	0.45464367
19	0x3bbda42e	0.005787394
20	0x3edb239c	0.42800605
21	0xbe4cf962	-0.20017007
22	0x3ef11829	0.47088745
23	0xbeb96d80	-0.36216354
24	0x3e454b25	0.19266947
25	0x3f6c917f	0.9240951
26	0x3e1114ae	0.14168045
27	0x3e4661fe	0.19373319
28	0x3e54ba4e	0.20774195
29	0x3ee4c3f0	0.44680738
30	0x3ea92aa1	0.33040336
31	0xbdff4e0c	-0.12466058

fc3.bias f4 [4]
0	0x3d96870e	0.073499784
1	0xbe0912d2	-0.13386086
2	0x3d4a7882	0.04943133
3	0xbe25a102	-0.16174701
