p1_navigation/model.pth (torch_old, 7046 bytes, 6 tensors)

fc1.weight f4 [32, 37]
-0.13911377 0.017757816 0.009525442 0.07745786 -0.13449503 0.39554754 0.14478634 -0.006665347
-0.11946135 -1.3394672 0.1105629 -0.00875272 -0.2478375 -0.23418467 -0.26558724 0.044680353
-0.029736288 -0.103587374 0.14145786 0.101150036 0.14486274 0.13458687 -0.10900596 -0.18843472
-0.33993682 0.0883651 -0.074230574 -0.270779 -0.037012555 -0.18873739 0.26448518 -0.03525766
-0.46493143 -0.36913624 -1.3268093 -0.08450318 0.027759809 0.3429516 -0.016795818 -0.07788967
-0.2283344 -1.0667864 -0.2625583 -0.0010109983 0.015250587 -0.009522622 -0.0074429302 -0.007444649
-0.0057525467 0.015946234 0.05714783 0.018970195 -0.16853641 0.03096841 0.095010534 0.09982692
0.13224427 -0.15934068 -0.058325697 -0.11210035 0.041461453 0.24758136 -0.024328241 0.048948415
-0.0024609633 -0.06916543 0.20025784 0.024263566 0.08925123 0.123159714 0.2026525 0.041875817
-0.017178051 0.016356867 0.02959515 0.12454002 0.12084716 0.08060287 -0.121498436 -0.19832373
0.027217379 0.14856873 0.12884389 0.15307823 -0.057778686 -0.11367396 -0.0024619354 0.14513576
0.07920421 -0.05836165 0.0813822 0.03784446 0.13543028 0.05388101 -0.49641392 0.07904401
0.097343534 0.17821896 0.6559154 0.04942417 0.032136846 0.019954469 -0.100231476 -0.05559
-0.15940906 -0.041112717 -0.12627979 5.7102265e-05 0.022159817 0.039822932 -0.012267431 0.08581795
0.128044 0.014903627 0.025683686 -0.011979286 0.46727264 -0.63302946 -0.32475176 -0.3856518
-1.1917559 -0.053969126 0.0137092965 0.01659465 0.057913035 0.0028459583 -0.06817882 -0.046297796
-0.04850178 0.0038912825 -0.018094106 0.08361747 0.08138729 0.03552847 -0.0062865936 -0.10582638
0.06252536 0.039253008 0.08621375 0.09836611 0.14370088 0.29780963 0.090590745 -0.11081723
-0.20407122 -0.646052 -0.011304929 -0.0021941336 0.10557831 0.09652678 -0.04409374 -0.053061046
-0.05614941 0.28684765 0.212424 0.061761893 0.22515325 -0.16542226 0.115891896 0.16054478
0.071121976 0.11604898 -0.04949113 0.14211375 0.030198498 0.15519734 0.023502039 -0.014566927
0.06365213 0.15382564 0.22928147 0.14171985 0.14582121 0.2576899 0.034820426 0.22871783
0.09528744 -0.042368066 0.2777294 0.15211819 0.08343459 0.06818535 0.18801473 0.1186072
0.021357656 0.028646372 0.056247935 0.0063858284 -0.14178146 -0.1147049 0.37409565 -0.1072409
-0.31797814 -0.38816497 -1.382844 -0.1771929 -0.050648287 0.048910752 0.050490543 0.26052
0.11362366 0.09020187 -0.061094813 -0.10860664 -0.28436044 -0.06248869 0.2156925 0.2639101
0.15587802 0.025552636 0.20286295 -0.05482308 -0.29191193 -0.3436328 -0.8677178 0.102975205
0.21957368 -0.046898805 -0.2552452 -0.86964184 0.00994245 0.010775334 -0.014976015 -0.042952366
-0.042396277 -0.026485866 0.0069978037 -0.2671205 -0.005259462 0.016284883 0.16220985 0.26891142
0.055388387 0.07503634 -0.014096829 -0.01004939 -0.013213693 0.24809302 -0.35436034 -0.43666178
0.09252594 0.641318 -0.05635751 -0.10940838 0.004806712 -0.043448918 -0.1082854 -0.20494151
-0.04867504 -0.12199875 0.04472398 0.012166904 -0.043629177 -0.014937598 -0.061278746 0.08792253
00000000: d773 0ebe d778 913c 9910 1c3c 3aa2 9e3d
00000010: 11b9 09be 3585 ca3e df42 143e fc68 dabb
00000020: 27a8 f4bd a973 abbf cd6e e23d 9267 0fbc
00000030: 1dc9 7dbe 1bce 6fbe 0dfb 87be bf02 373d
00000040: 8499 f3bc 9e25 d4bd 54da 103e c027 cf3d
00000050: e656 143e 24d1 093e 843e dfbd 08f5 40be
00000060: 330c aebe c3f8 b43d 3306 98bd 8ca3 8abe
00000070: 7a9a 17bd 6044 41be 9a6a 873e 566a 10bd
00000080: 7e0b eebe 6dff bcbe e3d4 a9bf 0110 adbd
00000090: 8a68 e33c 5a97 af3e 6297 89bc 9f84 9fbd
000000a0: 7ed0 69be 758c 88bf 0b6e 86be 7983 84ba
000000b0: 99dd 793c c604 1cbc d3e3 f3bb 3ef2 f3bb
000000c0: dc7f bcbb ada1 823c d813 6a3d 6267 9b3c
000000d0: cf94 2cbe 77b1 fd3c e294 c23d 0e72 cc3d
000000e0: 0b6b 073e 342a 23be ede6 6ebd de94 e5bd
000000f0: 7cd3 293d f885 7d3e 054c c7bc 227e 483d
00000100: 1d48 21bb 9ba6 8dbd 6410 4d3e 63c4 c63c
00000110: 59c9 b63d 293b fc3d 2384 4f3e fa85 2b3d
00000120: fcb8 8cbc d6fe 853c 8771 f23c d70e ff3d
00000130: b77e f73d 1e13 a53d 2cd4 f8bd 6015 4bbe
00000140: fbf6 de3c 6722 183e a7ef 033e 8ac0 1c3e
00000150: 58a9 6cbd e5cd e8bd 6c58 21bb 789e 143e
00000160: d135 a23d a00c 6fbd b6ab a63d cb02 1b3d
00000170: 3cae 0a3e 55b2 5c3d f729 febe d3e1 a13d
00000180: 0c5c c73d 087f 363e 12ea 273f 0071 4a3d
00000190: eda1 033d 8e77 a33c 2946 cdbd 57b2 63bd
000001a0: 213c 23be cf65 28bd 7d4f 01be 1781 6f38
000001b0: 8188 b53c 5f1d 233d 56fd 48bc 52c1 af3d
000001c0: f71d 033e 582e 743c 9866 d23c c444 44bc
000001d0: 5c3e ef3e 380e 22bf dd45 a6be 2774 c5be
000001e0: 758b 98bf bb0e 5dbd f59c 603c 81f1 873c
000001f0: 3836 6d3d 4283 3a3b 56a1 8bbd c2a2 3dbd
00000200: cda9 46bd e304 7f3b 173a 94bc a33f ab3d
00000210: 61ae a63d 4d86 113d c5ff cdbb 80bb d8bd
00000220: 4c0d 803d c3c7 203d d690 b03d 2c74 c93d
00000230: 5326 133e 817a 983e a487 b93d 25f4 e2bd
00000240: 0cf8 50be aa63 25bf 4f38 39bc 74cb 0fbb
00000250: 7139 d83d d5af c53d a39b 34bd 8a56 59bd
00000260: ecfc 65bd b2dd 923e ad85 593e 0afa 7c3d
00000270: 938e 663e 7464 29be bb58 ed3d da65 243e
00000280: 66a8 913d 16ab ed3d 36b7 4abd 4486 113e
00000290: d762 f73c 0dec 1e3e 5987 c03c 1faa 6ebc
000002a0: 0c5c 823d 7884 1d3e c3c8 6a3e 021f 113e
000002b0: 2852 153e eeef 833e dd9f 0e3d 0235 6a3e
000002c0: 1026 c33d 238a 2dbd 8c32 8e3e dfc4 1b3e
000002d0: c1df aa3d c3a4 8b3d ef86 403e 55e8 f23d
000002e0: 40f6 ae3c ccab ea3c 3c64 663d 3640 d13b
000002f0: 292f 11be 67ea eabd 7789 bf3e 1ea1 dbbd
00000300: 08ce a2be 8fbd c6be 0801 b1bf 0e72 35be
00000310: 9474 4fbd a456 483d 2ccf 4e3d e162 853e
00000320: 85b3 e83d c2bb b83d 8e3e 7abd 286d debd
00000330: b197 91be 24f4 7fbd 7fde 5c3e 3a1f 873e
00000340: 7d9e 1f3e c353 d13c 4ebb 4f3e 2a8e 60bd
00000350: 7b75 95be a3f0 afbe c122 5ebf aae4 d23d
00000360: ecd7 603e f618 40bd 80af 82be d9a0 5ebf
00000370: a8e5 223c 078b 303c f65d 75bc d2ee 2fbd
00000380: b8a7 2dbd e3f8 d8bc d54d e53b 05c4 88be
00000390: 9157 acbb e067 853c 571a 263e c2ae 893e
000003a0: efde 623d a7ac 993d 63f6 66bc 32a6 24bc
000003b0: 3f7e 58bc 190c 7e3e b86e b5be 2292 dfbe
000003c0: 3d7e bd3d 6b2d 243f 22d7 66bd 8011 e0bd
000003d0: 9f81 9d3b 7ef7 31bd bcc4 ddbd 30dc 51be
000003e0: 7b5f 47bd 7bda f9bd 7e30 373d b257 473c
000003f0: 82b4 32bd d4bc 74bc 6cff 7abd ba10 b43d

fc1.bias f4 [32]
0.0042059906 -0.17259596 -0.03798984 0.20407794 0.3999623 -0.113548025 -0.047182117 0.29272923
0.2898411 0.36082593 0.0572183 -0.063288316 0.0036610884 -0.043206446 0.16828364 -0.03669523
0.10480828 0.3650208 0.27929008 -0.27039477 -0.005926772 -0.14617954 0.13926327 0.10013374
-0.08784479 -0.085424095 0.11239597 -0.08999358 -0.012071672 -0.20129345 0.0061536124 -0.07160098
00000000: 68d2 893b ffbc 30be 3c9b 1bbd cff9 503e
00000010: dcc7 cc3e de8b e8bd 0942 41bd 9be0 953e
00000020: 0d66 943e 2dbe b83e bc5d 6a3d 4e9d 81bd
00000030: dfee 6f3b 3ef9 30bd 8c52 2c3e bd4d 16bd
00000040: b9a5 d63d 02e4 ba3e 1cff 8e3e 2f71 8abe
00000050: 5e35 c2bb 17b0 15be 089b 0e3e eb12 cd3d
00000060: f8e7 b3bd d4f2 aebd dc2f e63d 8e4e b8bd
00000070: 43c8 45bc df1f 4ebe 3ea4 c93b 89a3 92bd

fc2.weight f4 [8, 32]
0.09548592 0.11847722 -0.047616523 0.28458187 0.21311651 -0.1534528 -0.020403892 -0.011527481
0.047289297 0.17779495 -0.11027278 0.06236113 0.029049307 0.96316195 0.4470762 0.12059618
-0.14002389 0.029673211 0.10343496 -0.2901967 0.098402016 0.1610815 0.16555572 0.095935844
-0.11751006 0.402194 -0.25389218 -0.18648028 -0.020871386 0.10822105 0.040426668 -0.07472026
0.31457144 0.38927108 -0.11752496 0.016468361 0.06775193 -0.238536 -0.23343517 -0.054751683
0.047119264 -0.18265589 -0.2535932 0.017518042 0.095492 -0.19065739 -0.109840885 -0.06004004
0.088306576 0.016707866 0.0074704997 0.24968797 0.24626221 0.35220918 -0.10367014 0.80941105
-0.023412213 -0.4051037 -0.111189544 0.19038081 0.10759656 0.6991102 -0.6667449 -0.3576642
-0.30956855 0.11307475 0.10254069 0.1931579 0.18794636 -0.2529091 -0.110326484 0.13470446
0.03184213 0.007054086 0.16490446 0.25856826 0.05832414 0.21885464 0.33150786 -0.18829799
0.12443664 -0.0012780199 0.2072816 -0.32717618 0.025176674 -0.23261939 0.23882541 0.54396427
0.27548325 0.67061275 -0.112427816 -0.22406806 -0.23358068 -0.28770974 0.7123602 -0.19002186
-0.007442042 -0.12846255 0.05427216 0.112073496 -0.17428695 -0.124472395 0.13093986 0.041854456
-0.011021331 0.031600296 -0.026877463 -0.12356071 -0.16518542 0.11626743 -0.021025226 -0.06565261
-0.04562874 -0.09641808 -0.052358314 -0.15174766 0.1322897 0.07218543 -0.08915228 -0.060336225
0.079308644 -0.06546137 0.0466149 0.048673958 -0.11127973 0.044282824 0.010815933 0.15439393
-0.260282 -0.030545566 0.21811812 0.14261037 0.12672259 0.058974408 -0.073586024 0.23161761
0.23744114 0.33403692 0.15881976 0.42912808 0.054140385 0.50353867 0.83441114 0.007928568
0.17624944 0.27608022 -0.048117578 -0.08270156 0.10287769 -0.051903002 0.23941065 0.121332005
-0.07348063 0.83519644 -0.17648618 0.031211691 -0.13260426 -0.289019 0.26497674 -0.024117144
-0.006954506 0.33504793 -0.026516497 0.13720243 0.18482848 -0.3534677 -0.1719817 0.0030706741
0.1747023 0.25061628 0.16777039 -0.25145218 0.023708034 0.5550743 0.24389763 0.02816112
0.11571065 0.13129371 0.1918813 0.47788924 0.04359221 0.026352385 0.17176415 0.41068602
-0.022388382 -0.33614516 -0.23138824 -0.15501742 -0.08703286 0.251577 0.7375217 -0.3276617
0.009138877 0.024228634 0.052255474 0.09406799 0.17565897 0.01648795 0.041074835 0.10014568
0.12102334 -0.087405674 0.1963811 0.40463406 0.06442426 0.107234195 0.7056704 -0.2585259
-0.11098697 0.059939187 0.15515998 0.12074077 -0.039202638 -0.3720243 -0.039870612 0.12798898
0.17379476 0.5966628 -0.2744154 -0.28754938 -0.065642506 -0.2350174 0.2384569 -0.07268586
0.19461413 0.35534343 -0.027434181 -0.060515426 -0.039347485 0.07393777 -0.10758213 0.04054618
0.15386216 -0.03368111 -0.14031932 0.03307694 0.23467025 -0.41340572 -0.07123493 -0.22712407
0.04376512 0.00026712572 0.022441067 0.2710162 -0.05735251 -0.20488791 0.041274924 0.3893267
-0.07879752 -0.29853502 0.45142248 0.23059286 0.12791334 0.2668 0.2789186 -0.21511169
00000000: 1f8e c33d 2fa4 f23d 8b09 43bd b7b4 913e
00000010: 373b 5a3e bb22 1dbe 1026 a7bc c2dd 3cbc
00000020: 6cb2 413d e10f 363e b2d6 e1bd 626e 7f3d
00000030: d0f8 ed3c c891 763f 2ce7 e43e 21fb f63d
00000040: 6c62 0fbe 3c15 f33c b5d5 d33d a994 94be
00000050: ff86 c93d 8cf2 243e 7087 293e 037a c43d
00000060: 1da9 f0bd 5fec cd3e 28fe 81be b0f4 3ebe
00000070: 78fa aabc ffa2 dd3d 6f96 253d f006 99bd
00000080: 820f a13e 8a4e c73e edb0 f0bd a8e8 863c
00000090: 86c1 8a3d c842 74be a109 6fbe 4d43 60bd
000000a0: 2100 413d 250a 3bbe f8d6 81be ff81 8f3c
000000b0: 4f91 c33d b13b 43be 42f4 e0bd 8cec 75bd
000000c0: 14da b43d efde 883c 18cb f43b 34ae 7f3e
000000d0: 292c 7c3e c354 b43e 0351 d4bd 9035 4f3f
000000e0: f8ca bfbc c169 cfbe 58b7 e3bd 30f3 423e
000000f0: 965b dc3d e3f8 323f cbaf 2abf c31f b7be
00000100: c57f 9ebe bc93 e73d da00 d23d 2fcb 453e
00000110: 0375 403e 4d7d 81be daf2 e1bd f7ef 093e
00000120: e56c 023d f625 e73b b7dc 283e 0f63 843e
00000130: 4be5 6e3d 6e1b 603e 66bb a93e 30d1 40be
00000140: a3d8 fe3d 3b83 a7ba a141 543e a383 a7be
00000150: 503f ce3c c733 6ebe a68e 743e 3e41 0b3f
00000160: 240c 8d3e 47ad 2b3f 8e40 e6bd 1972 65be
00000170: c62f 6fbe b14e 93be 3d5d 363f 1795 42be
00000180: 60dc f3bb b08b 03be 7c4c 5e3d ca86 e53d
00000190: 4778 32be 62eb febd 1915 063e 946f 2b3d
000001a0: d092 34bc 506f 013d 202e dcbc 660d fdbd
000001b0: 5e26 29be 9e1d ee3d 183d acbc e074 86bd
000001c0: 34e5 3abd d876 c5bd ac75 56bd bd63 1bbe
000001d0: f376 073e f4d5 933d 7895 b6bd 1e23 77bd
000001e0: 926c a23d 9c10 86bd 44ef 3e3d 585e 473d
000001f0: a1e6 e3bd e861 353d 5035 313c 7119 1e3e
00000200: af43 85be b23a fabc 5b5a 5f3e 7408 123e
00000210: 91c3 013e 268f 713d 45b4 96bd 2b2d 6d3e
00000220: c523 733e e306 ab3e a6a1 223e adb6 db3e
00000230: 4fc2 5d3d e9e7 003f f89b 553f d3e6 013c
00000240: bc7a 343e 635a 8d3e f016 45bd 6f5f a9bd
00000250: 8ab1 d23d 3e98 54bd 1128 753e ea7c f83d
00000260: 037d 96bd 6fcf 553f cbb8 34be a9af ff3c
00000270: 69c9 07be 4cfa 93be 08ab 873e 5191 c5bc
00000280: a0e2 e3bb 678b ab3e 2039 d9bc cb7e 0c3e
00000290: ad43 3d3e b8f9 b4be f91b 30be 5d3d 493b
000002a0: 29e5 323e c750 803e 00cc 2b3e 57be 80be
000002b0: 5a37 c23c 5919 0e3f 4dc0 793e 26b2 e63c
000002c0: b5f9 ec3d dc71 063e 887c 443e e6ad f43e
000002d0: bf8d 323d f5e0 d73c f1e2 2f3e 7045 d23e
000002e0: d767 b7bc 381b acbe 0af1 6cbe e3bc 1ebe
000002f0: 493e b2bd b3ce 803e 39ce 3c3f 46c3 a7be
00000300: 3abb 153c 217b c63c d609 563d b8a6 c03d
00000310: f2df 333e bd11 873c 163e 283d 2e19 cd3d
00000320: 16db f73d bf01 b3bd 2118 493e 322c cf3e
00000330: def0 833d 9a9d db3d d1a6 343f 825d 84be
00000340: 234d e3bd cb82 753d 42e2 1e3e f046 f73d
00000350: f292 20bd f879 bebe 5e4f 23bd 8b0f 033e
00000360: 41f7 313e e5be 183f 2d80 8cbe ac39 93be
00000370: 946f 86bd 67a8 70be 0c2e 743e 53dc 94bd
00000380: ed48 473e 93ef b53e a6bd e0bc 06df 77bd
00000390: d42a 21bd b06c 973d 0554 dcbd c013 263d
000003a0: 0b8e 1d3e 34f5 09bd deaf 0fbe af7b 073d
000003b0: 664d 703e eaa9 d3be 9ee3 91bd 3693 68be
000003c0: 0e43 333d 020d 8c39 54d6 b73c a3c2 8a3e
000003d0: 77ea 6abd 23ce 51be e50f 293d d455 c73e
000003e0: 9860 a1bd 95d9 98be d920 e73e 8920 6c3e
000003f0: b7fb 023e 029a 883e 6bce 8e3e 3d46 5cbe

fc2.bias f4 [8]
0.38229018 0.11376627 0.1596103 -0.15041976 0.112712234 0.06689192 0.34257153 0.10076321
00000000: 8abb c33e 4afe e83d e270 233e a307 1abe
00000010: acd5 e63d a2fe 883d 8965 af3e f15c ce3d

fc3.weight f4 [4, 8]
0.38226613 0.57641727 0.11987965 -0.21912369 0.31719378 0.3252737 0.23647314 -0.2654869
0.5163553 0.47697532 0.43065545 0.1475614 0.32682657 -0.013002719 0.033864446 0.029825445
0.14255284 -0.22614479 0.45077103 -0.007645786 0.47627288 -0.17860912 0.33597395 -0.022400683
0.07291688 0.8115428 0.24020645 0.19373319 0.15900959 0.55434805 0.26664603 0.19027026
00000000: 63b8 c33e 1590 133f 7683 f53d f661 60be
00000010: 3967 a23e 468a a63e 0426 723e e6ed 87be
00000020: dc2f 043f 1c36 f43e df7e dc3e 561a 173e
00000030: d055 a73e 5b09 55bc 72b5 0a3d 7e54 f43c
00000040: 5ff9 113e 8092 67be 76cb e63e 8089 fabb
00000050: 0ada f33e 4fe5 36be c704 ac3e a381 b7bc
00000060: 7255 953d 45c1 4f3f aef8 753e fe61 463e
00000070: 69d3 223e c1e9 0d3f d485 883e 35d6 423e

fc3.bias f4 [4]
-0.06032857 -0.14769438 0.08103763 -0.07394198
00000000: 171b 77bd 323d 17be 0ff7 a53d e56e 97bd
