p1_navigation/target_model.pth (torch_old, 7046 bytes, 6 tensors)

fc1.weight f4 [32, 37]
-0.13179417 0.019325137 -0.0041233255 0.08370815 -0.13567255 0.40144145 0.09869623 0.0004276541
-0.13423671 -1.3527513 0.11485147 -0.005292929 -0.2477281 -0.2466017 -0.2585679 0.037662983
-0.011278286 -0.11782711 0.14746232 0.094542 0.13973778 0.12738875 -0.09131888 -0.1719676
-0.343407 0.08634389 -0.05433928 -0.27164152 -0.06355957 -0.19083966 0.2655576 -0.040925276
-0.45346057 -0.3700647 -1.3125261 -0.082497776 0.02549099 0.33663586 -0.0067559867 -0.06431379
-0.23192866 -1.0089859 -0.26548928 0.002511472 -0.0012561242 0.01213037 -0.030238483 -0.040112276
-0.010065509 0.03151182 0.06355383 0.0109277535 -0.17981158 0.02873553 0.1129531 0.09364673
0.11685255 -0.15521194 -0.053166732 -0.10202355 0.015406386 0.25757617 -0.023678577 0.060195815
-0.0015189358 -0.09430516 0.20751287 0.02621047 0.098072544 0.105544865 0.21434407 0.034213737
0.0016020105 0.012515796 0.04357906 0.13397191 0.10828024 0.0724601 -0.12659532 -0.20395733
0.030628799 0.1551842 0.12808779 0.14668943 -0.042098317 -0.119586505 0.0049469615 0.12990981
0.08600134 -0.07155142 0.08547291 0.04867972 0.1331382 0.058172844 -0.4759185 0.06881003
0.10436672 0.17644268 0.65579265 0.04173044 0.038360853 0.030113466 -0.111327365 -0.037351202
-0.15558197 -0.043874748 -0.12528437 0.0017803907 0.02683178 0.03205478 -0.013147155 0.085521765
0.112426765 0.02282195 0.03235963 -0.024965765 0.46448427 -0.63302946 -0.30555275 -0.39446905
-1.1898875 -0.06398113 0.02335184 0.012617057 0.06031908 0.0023858126 -0.066200405 -0.053495664
-0.04918875 0.005248783 -0.019745437 0.080471344 0.08745576 0.03585093 -0.016730035 -0.107149184
0.06421629 0.027492894 0.089880295 0.09753272 0.14628546 0.29358667 0.09156443 -0.111714885
-0.19763337 -0.6491076 -0.0064869397 -0.00063066196 0.10919005 0.0928394 -0.04516555 -0.0568258
-0.061120033 0.28993395 0.20984559 0.062212117 0.21107309 -0.16789784 0.11877052 0.15989757
0.06895136 0.108918466 -0.04910697 0.14546725 0.028905515 0.1526599 0.0150374975 -0.00885263
0.06407758 0.152364 0.23090099 0.13398322 0.14847814 0.255685 0.032605294 0.2240603
0.10133228 -0.040128224 0.27547836 0.15232606 0.08303261 0.06615174 0.19349831 0.11719268
0.020662727 0.03003275 0.055667896 0.0041465894 -0.14558098 -0.11060154 0.36955097 -0.0863703
-0.31525734 -0.40199372 -1.3489809 -0.19060728 -0.03085315 0.0360952 0.06019551 0.2550053
0.1121065 0.08739363 -0.06281473 -0.10418344 -0.28602207 -0.064467095 0.23322938 0.24512999
0.15530671 0.019903978 0.19837622 -0.051780738 -0.26925308 -0.3714167 -0.8576875 0.10768803
0.2214399 -0.06269791 -0.26916468 -0.88645726 0.018413607 0.010498267 -0.008400421 -0.051314306
-0.054259174 -0.013593141 0.012550148 -0.243905 -0.01382255 0.008807167 0.1650256 0.27805153
0.03750739 0.09014283 -0.01675853 -0.013632835 -0.004893074 0.24586459 -0.35454845 -0.43263346
0.10049759 0.64932907 -0.05239286 -0.09680223 -0.007648079 -0.047090612 -0.100404955 -0.18988258
-0.05308706 -0.124240704 0.040632036 0.040410716 -0.039274495 -0.015152748 -0.06366561 0.08630849
00000000: 0df5 06be c04f 9e3c f61c 87bb 2e6f ab3d
00000010: bfed 0abe bc89 cd3e 4021 ca3d c336 e039
00000020: 5975 09be f426 adbf 3f37 eb3d 4e70 adbb
00000030: 6fac 7dbe 2885 7cbe 0363 84be 8044 1a3d
00000040: 8fc8 38bc 574f f1bd 5d00 173e 3c9f c13d
00000050: 6c17 0f3e 3272 023e 6505 bbbd 4618 30be
00000060: 0bd3 afbe 11d5 b03d dd92 5ebd 9914 8bbe
00000070: 852b 82bd 796b 43be 2af7 873e 43a1 27bd
00000080: fc2b e8be 1f79 bdbe db00 a8bf 98f4 a8bd
00000090: 7bd2 d03c 895b ac3e 5361 ddbb f3b6 83bd
000000a0: b57e 6dbe 7326 81bf 36ee 87be 8297 243b
000000b0: 89a4 a4ba 76be 463c b2b6 f7bc c54c 24bd
000000c0: cee9 24bc 8a12 013d 8328 823d 520a 333c
000000d0: 8720 38be c666 eb3c f453 e73d dbc9 bf3d
000000e0: 6450 ef3d e1ef 1ebe 5cc5 59bd b9f1 d0bd
000000f0: 116b 7c3c 06e1 833e 93f9 c1bc e38f 763d
00000100: 0717 c7ba 1023 c1bd 417e 543e 57b7 d63c
00000110: 42da c83d e827 d83d 037d 5b3e b423 0c3d
00000120: 8dfa d13a 0e0f 4d3c f57f 323d ef2f 093e
00000130: 08c2 dd3d f665 943d 34a2 01be 31da 50be
00000140: 3fe9 fa3c 9be8 1e3e 7229 033e c135 163e
00000150: 496f 2cbd c5e9 f4bd 1f1a a23b 1407 053e
00000160: 7821 b03d 8d89 92bd 6c0c af3d 6364 473d
00000170: 6155 083e a646 6e3d 97ab f3be 46ec 8c3d
00000180: 38be d53d 64ad 343e 07e2 273f 8aed 2a3d
00000190: 4520 1d3d 84b0 f63c 9aff e3bd 93fd 18bd
000001a0: e150 1fbe 02b6 33bd 8c4a 00be 005c e93a
000001b0: 52ce db3c df4b 033d 2a67 57bc 0926 af3d
000001c0: 0140 e63d 19f5 ba3c 888b 043d 0185 ccbc
000001d0: e2d0 ed3e 380e 22bf 6971 9cbe d9f7 c9be
000001e0: 3c4e 98bf 8a08 83bd 5c4c bf3c c6b7 4e3c
000001f0: 2411 773d 4b5b 1c3b 1494 87bd 451e 5bbd
00000200: 257a 49bd fcfd ab3b 2fc1 a1bc 29ce a43d
00000210: 011c b33d 6dd8 123d 6d0d 89bc 0871 dbbd
00000220: d583 833d c738 e13c 2913 b83d 3cbf c73d
00000230: dbcb 153e fe50 963e 2286 bb3d c6ca e4bd
00000240: 6760 4abe ea2b 26bf 6590 d4bb 0253 25ba
00000250: 089f df3d 9522 be3d 83ff 38bd 2cc2 68bd
00000260: 0059 7abd 3972 943e c3e1 563e 22d2 7e3d
00000270: 8b23 583e 69ed 2bbe f53d f33d 30bc 233e
00000280: 5f36 8d3d a510 df3d 6424 49bd 5ef5 143e
00000290: 42cb ec3c e052 1c3e d65f 763c 9f0a 11bc
000002a0: 1b3b 833d 4f05 1c3e 4f71 6c3e e632 093e
000002b0: a70a 183e 25e9 823e 218d 053d 1070 653e
000002c0: 4c87 cf3d 7e5d 24bd 800b 8d3e 5dfb 1b3e
000002d0: 000d aa3d 907a 873d 6c24 463e b702 f03d
000002e0: e144 a93c 3e07 f63c 0504 643d 1de0 873b
000002f0: 2e13 15be 0f83 e2bd c935 bd3e e9e2 b0bd
00000300: 6969 a1be 1fd2 cdbe 68ab acbf 8e2e 43be
00000310: bfbf fcbc 8fd8 133d 918f 763d 0e90 823e
00000320: 1898 e53d 6efb b23d 02a5 80bd 215e d5bd
00000330: 7c71 92be 5307 84bd afd3 6e3e 5b03 7b3e
00000340: b908 1f3e ab0d a33c 2323 4b3e 0a18 54bd
00000350: 8adb 89be 542a bebe 6891 5bbf 8b8b dc3d
00000360: 24c1 623e c367 80bd f4cf 89be ddee 62bf
00000370: 22d8 963c ec00 2c3c eba1 09bc f32e 52bd
00000380: de3e 5ebd c4b5 5ebc 239f 4d3c 3bc2 79be
00000390: fa77 62bc f04b 103c 79fc 283e c55c 8e3e
000003a0: 59a1 193d ce9c b83d 2f49 89bc 415c 5fbc
000003b0: 1456 a0bb edc3 7b3e 6087 b5be 2282 ddbe
000003c0: aed1 cd3d 6e3a 263f e599 56bd 3f40 c6bd
000003d0: bd9c fabb 16e2 40bd 1da1 cdbd 9470 42be
000003e0: d171 59bd e971 febd c76d 263d b585 253d
000003f0: 4bde 20bd 3b43 78bc 1e63 82bd 81c2 b03d

fc1.bias f4 [32]
0.0038511928 -0.1713054 -0.035809148 0.20237067 0.39789736 -0.11602175 -0.047108628 0.29246157
0.2878633 0.35892096 0.05182471 -0.06441153 0.014132546 -0.044439103 0.16889405 -0.0349906
0.11239215 0.36337844 0.280866 -0.27605727 -0.0046675676 -0.14094022 0.1377695 0.10599819
-0.09057799 -0.08695784 0.11565548 -0.09428899 -0.013840663 -0.20643878 0.0041995486 -0.07710635
00000000: 4b64 7c3b af6a 2fbe 9dac 12bd 423a 4f3e
00000010: 34b9 cb3e d09c edbd faf4 40bd 86bd 953e
00000020: d262 933e 7dc4 b73e 2646 543d 31ea 83bd
00000030: 328c 673c c705 36bd 90f2 2c3e 4e52 0fbd
00000040: db2d e63d bd0c ba3e abcd 8f3e 6157 8dbe
00000050: 65f2 98bb a252 10be 7313 0d3e 9415 d93d
00000060: f480 b9bd f416 b2bd c8dc ec3d 961a c1bd
00000070: f3c3 62bc b064 53be 5e9c 893b efe9 9dbd

fc2.weight f4 [8, 32]
0.094125606 0.09840092 -0.047924787 0.28346953 0.21296372 -0.15118362 -0.019537969 -0.009720968
0.048716154 0.17611055 -0.11391719 0.06622364 0.038605317 0.96268094 0.4457402 0.12473687
-0.13687262 0.02936148 0.10101773 -0.28374282 0.099012904 0.15600108 0.16601193 0.10676425
-0.12385324 0.4229061 -0.25334334 -0.17486641 -0.020470286 0.108909234 0.054254606 -0.07614923
0.3085633 0.3530396 -0.124153174 0.011205133 0.06661881 -0.24721695 -0.24577571 -0.05690198
0.046651993 -0.18403035 -0.24549733 0.009089824 0.092630364 -0.2061061 -0.09203289 -0.07296849
0.081397034 0.017205982 0.0068978975 0.23660922 0.26046416 0.3359533 -0.10547389 0.81563264
-0.020516029 -0.4141308 -0.11537942 0.19503509 0.109368056 0.6763706 -0.67063564 -0.32472563
-0.31500995 0.10507529 0.099788055 0.1916101 0.18870066 -0.2523766 -0.10626239 0.13641027
0.03236184 0.0078872405 0.1633451 0.24380225 0.063503414 0.2293253 0.3371243 -0.18775012
0.12888889 -0.0020164573 0.20855652 -0.3290651 0.024480546 -0.23375739 0.23952417 0.5542964
0.2743663 0.66625816 -0.11670815 -0.22641957 -0.22091135 -0.3146088 0.70899874 -0.18923835
-0.007442042 -0.12846255 0.05427216 0.112073496 -0.17428695 -0.124472395 0.13093986 0.041854456
-0.011021331 0.031600296 -0.026877463 -0.12356071 -0.16518542 0.11626743 -0.021025226 -0.06565261
-0.04562874 -0.09641808 -0.052358314 -0.15174766 0.1322897 0.07218543 -0.08915228 -0.060336225
0.079308644 -0.06546137 0.0466149 0.048673958 -0.11127973 0.044282824 0.010815933 0.15439393
-0.2626975 -0.042403463 0.21529369 0.14149784 0.12670705 0.062595226 -0.070982724 0.23338719
0.2381998 0.33306187 0.15727217 0.41869608 0.052835345 0.5053086 0.835042 0.008936079
0.17879076 0.27529973 -0.04845678 -0.081778884 0.101847894 -0.048884634 0.23967305 0.1286704
-0.07588513 0.83358043 -0.17933145 0.03038266 -0.12623872 -0.3034216 0.27176514 -0.02544479
-0.008292032 0.32036856 -0.035066586 0.1388126 0.18369013 -0.35434917 -0.17596929 -0.00021579037
0.17265792 0.24890974 0.16693836 -0.24325466 0.0211604 0.56283903 0.2482313 0.014532745
0.12407513 0.12960075 0.186375 0.47618166 0.057045948 0.010284857 0.16892184 0.42512095
-0.028102312 -0.30634454 -0.22761446 -0.13582131 -0.09242474 0.24805915 0.7422201 -0.3227591
0.007136468 0.011591275 0.045941047 0.094244145 0.17537154 0.020135103 0.041982103 0.10040621
0.120601974 -0.08847476 0.19639677 0.39293 0.057397388 0.1123582 0.7082051 -0.26471075
-0.106352635 0.058659483 0.15344958 0.11957401 -0.035510067 -0.3739101 -0.040772878 0.1367664
0.17227139 0.594953 -0.2765036 -0.28499314 -0.060432762 -0.25311098 0.24195018 -0.07275155
0.19122894 0.36058396 -0.031571396 -0.05984879 -0.03816008 0.06739643 -0.10586076 0.038779613
0.15256219 -0.030359117 -0.13817003 0.026754057 0.24622577 -0.40659735 -0.061587818 -0.23354757
0.050866168 0.00046730132 0.024703762 0.26543477 -0.054265168 -0.22233072 0.04125866 0.3931209
-0.07464989 -0.30775985 0.45161727 0.22937928 0.13253829 0.25390404 0.2592435 -0.2053633
00000000: edc4 c03d 6c86 c93d c84c 44bd eb22 913e
00000010: 2913 5a3e e1cf 1abe 170e a0bc b244 1fbc
00000020: 978a 473d 5356 343e 6a4d e9bd 43a0 873d
00000030: 9c20 1e3d 4272 763f 0f38 e43e 0b76 ff3d
00000040: 5628 0cbe 7d87 f03c 62e2 ce3d bd46 91be
00000050: 47c7 ca3d bfbe 1f3e 08ff 293e 37a7 da3d
00000060: c4a6 fdbd 2687 d83e 38b6 81be 2e10 33be
00000070: 4db1 a7bc ce0b df3d 143a 5e3d 21f4 9bbd
00000080: 02fc 9d3e 9bc1 b43e 0544 febd bc95 373c
00000090: 716f 883d 7126 7dbe a1ac 7bbe 0d12 69bd
000000a0: 2916 3f3d 7472 3cbe a763 7bbe 7ced 143c
000000b0: fdb4 bd3d 7a0d 53be bd7b bcbd 8170 95bd
000000c0: 7db3 a63d 8ff3 8c3c c207 e23b b049 723e
000000d0: 8f5b 853e 1202 ac3e b202 d8bd 4dcd 503f
000000e0: 3b11 a8bc f408 d4be 0c4c ecbd 47b7 473e
000000f0: 5cfc df3d a026 2d3f c7ae 2bbf 7042 a6be
00000100: fc48 a1be b731 d73d ae5d cc3d 7035 443e
00000110: bf3a 413e 8137 81be 19a0 d9bd 22af 0b3e
00000120: d98d 043d 7c39 013c f043 273e 4ca7 793e
00000130: 140e 823d 40d4 6a3e 8e9b ac3e 9141 40be
00000140: 73fb 033e 8a26 04bb d78f 553e 397b a8be
00000150: 6d8b c83c 195e 6fbe d345 753e 5ee6 0d3f
00000160: bd79 8c3e e58f 2a3f af04 efbd 88da 67be
00000170: 9636 62be 6814 a1be f180 353f b3c7 41be
00000180: 60dc f3bb b08b 03be 7c4c 5e3d ca86 e53d
00000190: 4778 32be 62eb febd 1915 063e 946f 2b3d
000001a0: d092 34bc 506f 013d 202e dcbc 660d fdbd
000001b0: 5e26 29be 9e1d ee3d 183d acbc e074 86bd
000001c0: 34e5 3abd d876 c5bd ac75 56bd bd63 1bbe
000001d0: f376 073e f4d5 933d 7895 b6bd 1e23 77bd
000001e0: 926c a23d 9c10 86bd 44ef 3e3d 585e 473d
000001f0: a1e6 e3bd e861 353d 5035 313c 7119 1e3e
00000200: 4980 86be 41af 2dbd f375 5c3e cfe4 103e
00000210: 7ebf 013e ed31 803d 645f 91bd 0dfd 6e3e
00000220: a6ea 733e 1687 aa3e f50b 213e 555f d63e
00000230: e069 583d e85b 013f 50c5 553f a268 123c
00000240: ed14 373e 16f4 8c3e 9e7a 46bd b07b a7bd
00000250: a195 d03d 413b 48bd da6c 753e 2cc2 033e
00000260: aa69 9bbd 8765 553f aaa2 37be 0ee5 f83c
00000270: b944 01be 135a 9bbe cd24 8b3e 9871 d0bc
00000280: 4edb 07bc 5907 a43e fba1 0fbd e424 0e3e
00000290: 4419 3c3e 416d b5be 4b31 34be c945 62b9
000002a0: 3dcd 303e 32e2 7e3e e4f1 2a3e c017 79be
000002b0: 9358 ad3c 3816 103f 5930 7e3e c01a 6e3c
000002c0: 1a1b fe3d 0fb6 043e 17d9 3e3e 15ce f33e
000002d0: 03a9 693d d181 283c d9f9 2c3e 74a9 d93e
000002e0: d236 e6bc 31d9 9cbe c413 69be be14 0bbe
000002f0: 2f49 bdbd 3803 7e3e 2302 3e3f ae40 a5be
00000300: 08d9 e93b 55e9 3d3c ae2c 3c3d 1303 c13d
00000310: 9994 333e 5ff2 a43c 6df5 2b3d c5a1 cd3d
00000320: 2bfe f63d 4132 b5bd 3c1c 493e 1f2e c93e
00000330: 8619 6b3d 0e1c e63d ee4c 353f 2b88 87be
00000340: 69cf d9bd ed44 703d e321 1d3e 38e3 f43d
00000350: 0173 11bd 2571 bfbe 7601 27bd 7e0c 0c3e
00000360: e967 303e d74e 183f e191 8dbe 9fea 91be
00000370: 5888 77bd c397 81be cac1 773e c4fe 94bd
00000380: 85d1 433e 769e b83e 0251 01bd 0124 75bd
00000390: be4d 1cbd 2407 8a3d 87cd d8bd 5fd7 1e3d
000003a0: 4339 1c3e afb3 f8bc 727c 0dbe 532b db3c
000003b0: 9c22 7c3e 872d d0be 8243 7cbd 1827 6fbe
000003c0: 0b59 503d 1f00 f539 8b5f ca3c 11e7 873e
000003d0: 2745 5ebd aaaa 63be d7fe 283d 2547 c93e
000003e0: 0be2 98bd b392 9dbe 613a e73e 67e2 6a3e
000003f0: 1eb8 073e b6ff 813e 90bb 843e c24a 52be

fc2.bias f4 [8]
0.38038754 0.112028666 0.15854463 -0.15041976 0.110991105 0.06251423 0.33986822 0.101985395
00000000: 28c2 c23e 496f e53d 8659 223e a307 1abe
00000010: 4e4f e33d 7607 803d 3503 ae3e b8dd d03d

fc3.weight f4 [4, 8]
0.38087282 0.55945647 0.12085003 -0.21912369 0.31706893 0.32522213 0.2364984 -0.26422468
0.5230878 0.49061406 0.4364937 0.1475614 0.33338475 -0.009168142 0.037550014 0.039977167
0.14255306 -0.24427004 0.44983596 -0.007645786 0.47539425 -0.17840059 0.33559138 -0.024795013
0.07423964 0.82182556 0.23940757 0.19373319 0.15912248 0.5542852 0.2652226 0.18395777
00000000: c301 c33e 8a38 0f3f 3880 f73d f661 60be
00000010: dc56 a23e 8483 a63e a32c 723e 7548 87be
00000020: 15e9 053f c431 fb3e 1a7c df3e 561a 173e
00000030: 68b1 aa3e fa35 16bc 0bce 193d 19bf 233d
00000040: 6ef9 113e ed21 7abe e650 e63e 8089 fabb
00000050: e066 f33e a5ae 36be a2d2 ab3e e91e cbbc
00000060: f40a 983d 2963 523f 4227 753e fe61 463e
00000070: 01f1 223e a3e5 0d3f 42cb 873e 6d5f 3c3e

fc3.bias f4 [4]
-0.06333218 -0.14477892 0.08130679 -0.0780676
00000000: 4db4 81bd ed40 14be 2d84 a63d e8e1 9fbd
